mlp_4cls_3_layers_slice_3_hm.pt (torch, 60861 bytes, 18 tensors)

layer1.weight f4 [36, 108]
000000 f4 82 8e be 3f 75 f1 3d 61 ab 92 bd 50 b8 cb bb
       -0.27834284 0.11789941 -0.07161594 -0.00621704
000010 a9 c7 11 3e 50 f4 e0 3b f9 f2 2b 3d 85 a3 bd 3d
       0.1423632 0.006865062 0.041979764 0.092597045
000020 cd 44 f8 3d 09 22 1c 3d 5d 47 6d bd 71 95 1d 3d
       0.12122498 0.038118396 -0.057929385 0.038472597
000030 d9 26 35 bc f6 97 b7 3c f0 85 b5 bc 31 3d e2 3d
       -0.011056625 0.022411328 -0.022158593 0.110468276
000040 84 a1 96 3d 8c 3a b7 ba dd a9 96 bd 30 2b 11 be
       0.073550254 -0.001397924 -0.073566176 -0.14176631
000050 ea a8 06 be 47 fa a5 bd 6f 09 00 3e b3 06 38 bd
       -0.13150373 -0.08104377 0.12503599 -0.044928264
000060 c9 de 1a bd f8 be fe 3d e1 3c be bd 5d c3 eb bc
       -0.03781012 0.12438768 -0.092889555 -0.02877968
000070 ef 17 48 3d 90 2c b2 3c 37 db 47 3c 6e ea 58 3b
       0.04885095 0.021749765 0.012198261 0.0033098715
000080 d0 76 c9 bd e4 7b a3 3c 32 da 83 3d 22 d2 a2 3d
       -0.09837115 0.019956537 0.06438102 0.07950236
000090 48 10 3f 3e 96 d5 37 be 74 63 46 bd b6 47 b3 bc
       0.18658555 -0.1795257 -0.04843469 -0.02188478
0000a0 63 ad 4a 3d a4 dc 47 be 38 6b 4b be 92 a3 90 3e
       0.04948176 -0.19517761 -0.1986512 0.28249794
0000b0 78 1a ba bd 06 5b 7b be 11 8e c7 3e 38 2b 8a bd
       -0.0908708 -0.24546441 0.38975576 -0.067465246
0000c0 40 b8 6e bd e2 59 1d be 87 19 3b bd 71 cc a2 3d
       -0.058281183 -0.15366319 -0.04567864 0.0794915
0000d0 59 73 2f bd 4d a0 a3 bd 96 a9 75 3e 37 3c 34 bc
       -0.042834613 -0.07989559 0.23990473 -0.011000684
0000e0 19 0e c1 bc 9d b3 00 be ab 95 e9 3c af 80 0d be
       -0.023566293 -0.12568517 0.02851375 -0.1381862
0000f0 d9 41 a2 be 35 db 84 3e 26 63 1a be e3 b7 4a be
       -0.31690863 0.25948492 -0.15076885 -0.1979671
000100 04 c1 80 3e 10 09 e2 bd 10 82 ea bd c7 f9 fe bd
       0.2514726 -0.11036885 -0.11450589 -0.12449985
000110 20 d7 20 be f0 01 84 bb cd e2 d0 bd 82 e6 1c be
       -0.15707064 -0.0040285513 -0.10199509 -0.15322307
000120 6b 70 d4 3d 86 74 7c bd 84 d2 1d 3d 4d b7 66 bc
       0.103730045 -0.061634563 0.03853084 -0.014081788
000130 89 ec fa bd 43 75 a8 bd 5e 8d 45 be c6 0e 76 3d
       -0.12252147 -0.08225491 -0.19292209 0.060072683
000140 cb 0b 31 3c 79 0e 9c 3d 17 fb 61 bd 4e 0f 3e 3b
       0.010806034 0.07619948 -0.0551711 0.0029000822
000150 13 61 b9 3d d6 b6 39 be 94 1e 59 3d 38 2e 0a 3e
       0.090517186 -0.18136153 0.053007677 0.13494194
000160 06 45 43 be e4 d5 7c bc 63 d6 74 3d 65 45 b0 3c
       -0.19069299 -0.015431855 0.059774768 0.021517465
000170 c7 93 0f 3d e2 ec b6 3d 0b 40 b2 3d c7 ff 82 3d
       0.03505304 0.089319006 0.087036215 0.06396442
000180 9f d6 80 3d eb a9 8e 3c ee a5 19 3e 9e 46 f1 bd
       0.06290936 0.017415008 0.15004703 -0.11781047
000190 61 35 97 3d 34 e3 ef 3d 12 8a 0b 3d b5 83 e9 bd
       0.07383228 0.117132574 0.03406722 -0.11402074
0001a0 8f a7 9e 3c 04 21 76 3e ef 63 ac 3c 90 f3 84 3c
       0.019367008 0.24036032 0.021043746 0.01622942
0001b0 eb 44 de 3e c4 e1 8e 3d 61 5b 04 3d 67 90 a5 3e
       0.43411955 0.06976655 0.03231371 0.32336733
0001c0 63 05 27 be bb c2 d0 bc 49 37 39 3e 89 77 48 be
       -0.16310649 -0.02548348 0.18087496 -0.19576849
0001d0 00 eb 85 be 7c 24 79 3d b2 15 fd 3c 10 11 9c bd
       -0.26155853 0.06082581 0.030894134 -0.07620442
0001e0 e8 d5 84 3d 13 7a 73 3d 3c c6 2e bd b6 8e 0a 3d
       0.06486112 0.05944259 -0.04266952 0.033827506
0001f0 18 29 3b bc eb 80 72 bd 38 02 e6 3d 84 30 0d 3d
       -0.011423372 -0.059204977 0.11230892 0.034470096
000200 d6 2f b3 3d 67 c5 d8 3e 72 61 44 bd 83 38 0d 3e
       0.08749358 0.42338106 -0.047944494 0.13791089
000210 eb bc 81 3e 61 3e 61 bd 1c a8 4e 3c fc f2 91 3d
       0.25339445 -0.05499113 0.012613323 0.07126424
000220 89 74 88 3d 07 50 13 be 31 b6 b6 3d f2 a5 26 3d
       0.06662852 -0.14385997 0.08921469 0.0406856
000230 6d 4e 61 3d 59 21 2e be 5b 15 66 3c 94 c5 4e 3d
       0.055006433 -0.17004909 0.0140431775 0.050481394
000240 05 36 8d be 27 ec 4a 3e 5b 21 b4 3d 5c ce 5b 3e
       -0.27580276 0.19816647 0.087954246 0.21465439
000250 ca b3 70 bd af ea e0 3d 0b b8 03 3f 5f 3d 9d be
       -0.05876521 0.10982262 0.514527 -0.30710885
000260 78 0f 7f bd 51 47 c6 3e c5 73 8d be 00 60 07 be
       -0.06227061 0.38726285 -0.27627388 -0.13220215
000270 76 de e3 3d 67 03 91 3c 63 22 a7 3c c1 f8 03 bd
       0.111264154 0.017701818 0.020402139 -0.032219652
000280 be 76 0a 3d bf f5 84 bd 53 54 5e be b2 53 39 3e
       0.033804648 -0.06492185 -0.21711855 0.18098333
000290 c5 8b 0e 3d b3 d1 b6 3d 80 51 df 3d 10 e2 f6 3d
       0.034801263 0.08926716 0.10904217 0.12054837
0002a0 77 a8 c8 3e 3f fe 66 be ca 77 fd bd 0b a9 da 3e
       0.39191028 -0.22557925 -0.123763636 0.42707095
0002b0 f7 e4 56 be 01 40 73 3d 0d 4e 88 3e 43 5b ac 3d
       -0.2098578 0.05938721 0.26622048 0.08415844
0002c0 8e f6 43 3e f5 e1 ea bd 55 59 2b bd 56 20 f3 3d
       0.19137022 -0.11468879 -0.04183324 0.11871402
0002d0 cb cc 8b bd 36 7c 58 3d f5 aa c7 bd b3 8d b4 3d
       -0.068261705 0.05285283 -0.09749404 0.088160895
0002e0 3a 78 02 3e 58 8b 9f 3d 64 73 a4 3e 04 92 5a 3d
       0.12741175 0.077902496 0.32119286 0.053361908
0002f0 4f 4d ba bd cb 56 aa 3e 17 b9 bf bd 1d 05 fb 3c
       -0.09096777 0.33269343 -0.09361475 0.030642087
000300 9a f1 4e 3e 2d e5 e2 3d 4e 2f 2d 3e 23 65 5c 3d
       0.20209351 0.11078868 0.16912577 0.05380739
000310 88 37 29 bd 04 9f cf 3c 5e 99 58 be f9 7d 9f bd
       -0.041312724 0.02534438 -0.21152255 -0.07787699
000320 fe 3c 81 be b0 cb c2 bc 31 0f 2c 3d a7 f1 05 be
       -0.25241846 -0.023778766 0.042006675 -0.13080464
000330 d2 bf 5b 3e d3 3f 25 be 53 81 3a bd 79 9a 8b 3e
       0.21459892 -0.16137628 -0.04553349 0.2726629
000340 0d 52 82 bd 33 ab ba bd 44 b5 1b 3e fb 6b d9 bd
       -0.06363306 -0.09114685 0.15205866 -0.10616299
000350 28 5b 18 be 6d 84 fd bd 5a a4 ae bd 91 70 ba 3b
       -0.14878523 -0.12378774 -0.08527441 0.0056896885
000360 57 8a bf 3d 67 14 06 bc 57 d3 f3 bc 8f 0d 6b bc
       0.09352558 -0.008183575 -0.02976386 -0.014346494
000370 d4 5a bc 3b e2 4a bc 3b 2f 7f c8 bd 29 4e cd bd
       0.0057481322 0.0057462314 -0.09789883 -0.100246735
000380 02 58 1e bd b8 01 f1 3d c6 db e9 3d 68 92 cc 3c
       -0.03865815 0.11767906 0.114188716 0.024972156
000390 69 f9 bf 3c c3 fa 09 bc 83 76 45 3d a1 c4 c3 bc
       0.023434358 -0.008421603 0.048208725 -0.02389747
0003a0 84 e8 6a bd b7 26 ed 3d d2 c3 43 3e dd d0 90 3d
       -0.05735065 0.1157965 0.19117668 0.070710875
0003b0 12 e9 de 3d 8a 0f 3a 3e 11 f4 fd 3c 54 8d d4 3d
       0.108842984 0.1816999 0.031000169 0.10378519
0003c0 6b 5a fa ba 75 d2 6f 3d c4 c6 d0 b9 7b 6e 50 3d
       -0.0019100433 0.058550317 -0.00039820943 0.050886612
0003d0 5d c8 47 3d 5d f6 aa bd 4b 4f a1 bd ad 5d 3c 3d
       0.048775066 -0.08347771 -0.07876452 0.045987774
0003e0 17 26 e1 3d 91 52 42 bd 21 9b 00 be 07 e1 db 3d
       0.10993593 -0.047442023 -0.12559177 0.1073628
0003f0 82 9b 5e 3e ab 88 32 3b 5b a6 0a 3e ae 0f 89 3d
       0.21739009 0.0027242105 0.13540022 0.06692444

layer1.bias f4 [36]
000000 c0 b6 0f be 92 91 3f 3e 6f fe 55 3e d5 44 1b 3d
       -0.14034557 0.18707874 0.2089784 0.03790744
000010 f8 07 67 3d 20 98 93 3d 4d 13 25 3d 8a b5 13 be
       0.056404084 0.0720675 0.04030161 -0.1442472
000020 51 82 ba be 15 49 cd bd 10 b7 4b 3e e5 02 9c be
       -0.3642755 -0.10023705 0.19894052 -0.30470958
000030 f9 c7 94 3e 67 bb 51 be 28 d6 00 3e 6d fc bd bb
       0.29058817 -0.20481645 0.12581694 -0.0057979138
000040 dd 12 f4 3d 45 9e 8c 3d 79 e2 ac 3e 42 25 52 be
       0.119176604 0.06866125 0.33766535 -0.20522025
000050 fa 96 a5 bd 03 c8 1b 3e 57 b7 03 3d a5 8d b4 3d
       -0.08085437 0.15213017 0.03215727 0.08816079
000060 01 a0 38 be 51 d6 b1 3d 8e f3 32 bd 63 77 b3 be
       -0.18029787 0.08683456 -0.043689303 -0.35052022
000070 92 c7 02 be 2a e7 54 3a 77 56 9f be 24 8d 09 3d
       -0.12771443 0.00081216043 -0.31120655 0.033581868
000080 a3 a0 43 bd 62 65 87 3d ee de b2 3d 3d 6d 18 3e
       -0.047760617 0.06611134 0.08733927 0.14885421

layer2.weight f4 [16, 36]
000000 52 6d 25 be 22 0c ba 3d 8b ca 14 be 35 f3 9d bd
       -0.16154984 0.090843454 -0.14530389 -0.07712404
000010 3f 48 2f be af a0 59 be 54 bf 2a 3d f3 14 51 3e
       -0.17117403 -0.21252702 0.04168637 0.20418148
000020 d4 a8 46 3d 59 5c 9f 3e ad ed 06 be e3 be e3 bc
       0.04850085 0.31125143 -0.13176604 -0.027800983
000030 c4 28 af 3c f2 62 dd bd 7b 89 da 3d fe 04 26 bd
       0.021381743 -0.10809888 0.106707536 -0.040532105
000040 4c 3a cb 3d 4c c6 b1 bd cc 09 de be 86 7d 04 bd
       0.099232286 -0.086804 -0.4336685 -0.03234627
000050 51 44 c6 3d ca a8 41 be b6 4e 6f 3e 1a 53 b7 bd
       0.09680999 -0.18912044 0.2336987 -0.08951397
000060 f5 4f dd 3c ec 17 eb 3b 65 d8 74 bd 78 13 28 3d
       0.027015666 0.0071744826 -0.059776682 0.04103419
000070 98 07 8c be 79 9c 27 3d 0d fd 56 3e 6a 06 a3 bd
       -0.27349544 0.04092071 0.20994969 -0.07960208
000080 3f 36 cb 3c f7 6a 82 3d 42 4e 36 3d 91 7d 93 be
       0.02480614 0.06368058 0.044508226 -0.28806737
000090 2e d5 4b be 56 ab 17 3d e5 ee ee 3d 35 27 d8 bd
       -0.1990554 0.037028633 0.11666659 -0.10554353
0000a0 ed 92 9d 3d 5e a1 00 be 72 f9 38 3d 48 ab b9 3d
       0.076940395 -0.12561557 0.045159765 0.090658724
0000b0 14 01 0b be 0b d7 7e 3d 7e 63 5a 3d 3e 69 a5 3d
       -0.1357463 0.0622168 0.05331754 0.08076714
0000c0 aa e4 42 be 4d ea 84 3c d0 1e c6 3d 11 35 0a 3e
       -0.19032541 0.016225005 0.09673846 0.13496806
0000d0 e1 fd 6b bc 97 1c 08 3e 13 6e 15 be 93 ba 02 be
       -0.014403791 0.13292156 -0.14592771 -0.12766485
0000e0 5c 64 45 be 19 f6 d0 3d 7c 7a 68 3d d0 80 97 bd
       -0.19276565 0.102031894 0.056757435 -0.07397616
0000f0 40 01 0e bd b3 58 05 3d a3 1f 2e 3d be 6d ca bc
       -0.03466916 0.032555293 0.04251064 -0.024710532
000100 fd b0 06 be d4 56 ab bd 18 b0 ea 3d 41 cb 36 3d
       -0.13153453 -0.083661705 0.114593685 0.04462743
000110 fb fa 98 3d 95 3a 82 be fd 9c e8 bd 51 e1 ef bd
       0.07469746 -0.2543532 -0.11358068 -0.117128976
000120 dc c6 24 bd eb 3f 3e 3d a0 b8 d8 bd 56 a2 f3 3d
       -0.04022871 0.046447676 -0.105820894 0.118961975
000130 d0 94 97 bc 19 e7 9b be 18 88 a1 3d 6c 16 17 be
       -0.018503577 -0.3044975 0.07887286 -0.14754647
000140 b1 35 e4 3d 95 6e c0 3d 9f 9e 8c bd df 6e 84 be
       0.11143053 0.09396092 -0.06866192 -0.25865838
000150 ff c7 26 be 15 48 b9 3c 31 5a 6f 3e 8f 90 a6 bc
       -0.1628723 0.02261738 0.23374249 -0.020332603
000160 30 65 55 bd 64 15 ba bb 9e 1f c1 bd 83 70 f6 bd
       -0.052098453 -0.0056788195 -0.094298586 -0.12033179
000170 c6 f9 37 bd 69 72 e0 3d 8c 3c 9d bd b1 f7 49 be
       -0.044915937 0.10959322 -0.07677564 -0.19723393
000180 ac 01 74 be 52 91 4d 3d 2e dd f7 3d ea 47 16 bd
       -0.23828763 0.050187416 0.121027336 -0.036689676
000190 46 63 e3 bd 8f 21 11 be 52 c5 81 3d 7b af 47 3c
       -0.11102919 -0.14172958 0.06336464 0.012187834
0001a0 d2 96 4b be 5d f4 81 bd 32 93 a6 bd c3 07 19 bd
       -0.19881752 -0.06345437 -0.08133544 -0.037360918
0001b0 d7 c9 a5 bd 8f ab 27 3e 26 dd 01 3d 89 2c b3 bd
       -0.080951385 0.16374038 0.031705044 -0.08748729
0001c0 81 2e 89 be 13 85 32 3c d2 54 e8 bd 7c 2d 1d be
       -0.26793292 0.010895985 -0.11344303 -0.15349382
0001d0 ed 72 d7 3d 8f 31 27 be 12 51 d5 bd 0e 03 13 be
       0.10519967 -0.16327499 -0.104158536 -0.14356634
0001e0 f0 a2 8f 3d 0d 86 35 bd 7f 31 ac bc 09 9a 90 be
       0.070135 -0.044317294 -0.021019695 -0.2824252
0001f0 dd 9d 1f 3e 58 84 c3 3c d7 6d 7f 3c 98 83 79 bd
       0.15587564 0.023866817 0.015590153 -0.060916513
000200 bb d6 55 3d 75 6c 64 be 64 cd da 3d 63 ef 44 be
       0.052206736 -0.22306998 0.106837064 -0.19231944
000210 2e 48 e5 bd b6 2c 92 bc a0 cb 28 3d 99 44 64 bc
       -0.11195408 -0.017843585 0.041209817 -0.013932371
000220 34 ee b7 bd 86 55 c8 bd ac af f1 3d e0 60 61 3c
       -0.089809805 -0.09781937 0.11801085 0.013756007
000230 a0 ac 34 3d cf a2 83 bf 1c c8 12 be e3 40 0b be
       0.04410994 -1.028406 -0.14334148 -0.13598971
000240 f1 3a 53 be 4d a8 12 3e 43 be 24 3e 63 84 28 3e
       -0.20627953 0.14322014 0.16088204 0.16456752
000250 13 c2 19 bd d5 e4 ec bd 72 c4 64 3c a8 05 82 bd
       -0.0375386 -0.11567084 0.013962852 -0.06348735
000260 3b 1d b6 bd 58 e6 03 3e 75 0d 77 3e c5 75 66 be
       -0.08892294 0.12880838 0.24126227 -0.22505863
000270 07 3c 17 bd c8 31 93 bd 04 22 da 3c 0c ef ed ba
       -0.03692248 -0.071872294 0.026627548 -0.0018152907
000280 22 b2 c0 bd 83 33 a1 3d 08 e7 db 3c fe 1d a8 bc
       -0.09408976 0.07871153 0.026843563 -0.020522114
000290 88 de dc bd 36 f6 e6 3d ae 5a 4c 3d 4e 48 ad bc
       -0.10784632 0.1127743 0.049891166 -0.021152642
0002a0 03 0a 4c be 39 ae 01 be 8e 46 f9 bd b1 fa 7c 3c
       -0.19925694 -0.12664117 -0.1217166 0.015440629
0002b0 31 d5 18 bd a1 4d 2d bd 49 44 7b bd 4d d6 7c bd
       -0.03731269 -0.04231036 -0.06134442 -0.06172781
0002c0 9b ff fa bd 04 58 47 be 85 f9 b2 bc e8 91 5f be
       -0.12255784 -0.19467169 -0.021847496 -0.21833003
0002d0 87 53 1d 3d ff eb 23 3e 9f 6d 8d 3d 9b 23 2e bb
       0.038409736 0.16007994 0.06905674 -0.0026571515
0002e0 93 3f 2b bc 4a 5f 81 be ab 06 2f bb e2 52 1c 3a
       -0.010452169 -0.25268012 -0.0026706855 0.0005963278
0002f0 61 9e 1d be eb eb 70 3e e2 aa 4a 3e 7f 04 d6 bd
       -0.15392448 0.23527496 0.19791749 -0.10450076
000300 45 56 2c be 3c a1 3c 3d d2 d1 92 3d 14 6f 45 3c
       -0.16829784 0.046052203 0.07168926 0.012050409
000310 a7 6a 6d 3d f6 2d 4e 3e 44 7d 23 bd 5e e3 32 3d
       0.05796304 0.2013472 -0.039914384 0.043673865
000320 27 21 af 3b 8d 31 7e 3d 10 54 5f 3d 2a 7d be 3c
       0.0053445282 0.062058974 0.054523528 0.023253042
000330 3b 0b 5e 3d e0 2b 66 bd 6c fc fe 3c fd 2b 1b be
       0.05420993 -0.056194186 0.031126224 -0.15153499
000340 bf 12 77 bd 17 58 6b bd d1 62 91 3d 66 9e 43 39
       -0.060320612 -0.057457056 0.07098926 0.00018655657
000350 b8 f0 14 ba 79 91 fb bd 72 2f 8b bd bb c6 9e bd
       -0.0005681622 -0.12283606 -0.06796159 -0.077527486
000360 71 43 1a 3d 56 5a 3c bd c1 1a fc bc 4c 85 25 3d
       0.037661973 -0.04598459 -0.030774476 0.040410325
000370 e1 0f 91 3e 64 5e 2a 3e 66 12 97 3c 5d 2f 8b be
       0.28332427 0.1663757 0.01844139 -0.27184573
000380 87 f5 f4 be 82 eb 17 bd eb c9 5e 3e 29 5e 21 be
       -0.47843572 -0.037089832 0.21756713 -0.15758575
000390 03 05 35 3e 9b 95 9f bd 04 75 94 3d 21 08 c1 bc
       0.17677693 -0.07792207 0.072488815 -0.023563446
0003a0 77 07 d5 3d 2b e8 a7 3d 32 dd 84 3e d8 3c 96 bd
       0.104018144 0.081985794 0.2595001 -0.07335824
0003b0 08 21 65 be 2f ff 1e 3e fd 01 92 bd 89 5c 9d 3d
       -0.22375882 0.15527032 -0.071292855 0.07683665
0003c0 86 2f 15 be 9f d6 1b 3f 2b 3b 93 bd 89 2c 81 be
       -0.1456891 0.6087436 -0.0718902 -0.2522929
0003d0 c6 4c 94 3d a1 c3 f5 3d 7c eb c8 bd 25 be ba 3d
       0.07241206 0.12000204 -0.0981054 0.091182984
0003e0 1e 7e c2 be 74 e0 5f bc 85 bc aa 3d f6 64 2d 3e
       -0.37986845 -0.013664354 0.083367385 0.16933045
0003f0 05 32 97 bc f1 20 46 3f 47 12 d8 3c 01 d5 09 bd
       -0.018456468 0.77394015 0.026375903 -0.033650402

layer2.bias f4 [16]
000000 3d 23 0b 3e 47 f2 49 be b6 68 6f be 8e af c1 3c
       0.13587661 -0.19721328 -0.23379788 0.023643281
000010 ca b3 ee bc 03 22 6b be a7 6d 5a bd 58 d9 84 3d
       -0.029138464 -0.22962193 -0.05332723 0.064867675
000020 1c 29 c2 bd 37 95 74 be 9a 18 78 bd db 95 b2 3c
       -0.09480497 -0.23885046 -0.060570337 0.021799972
000030 2d c8 50 be b1 98 15 3d 05 2d 4f be ff 59 86 be
       -0.20388861 0.03652257 -0.20232017 -0.26240537

layer3.weight f4 [4, 16]
000000 de 5f ad be 80 47 58 3d 10 97 5b 3e 35 63 53 bc
       -0.33862203 0.052802563 0.21444345 -0.012902071
000010 04 78 e7 3d d7 15 98 bd 96 37 f8 bd c6 a4 1f 3d
       0.11302188 -0.074260406 -0.12119977 0.0389755
000020 a1 2f 02 be 7e ba c5 be d5 3d a2 3c 4a c2 36 3e
       -0.12713481 -0.38618845 0.019804874 0.17847553
000030 49 42 61 bd 07 4c 19 bf 1c a3 ae 3d 43 14 3a 3d
       -0.054994855 -0.59881634 0.085272044 0.04542948
000040 e0 cc c5 bc 80 4b 79 3d d8 32 07 3c 04 4b 5f be
       -0.024145544 0.060863018 0.008251868 -0.2180596
000050 3d 7d 11 bd 65 6a 06 be 32 a3 86 bd 47 78 32 be
       -0.035519827 -0.13126524 -0.06574096 -0.17428695
000060 b2 40 4b 3e 74 19 1b be c1 f5 bd bc 6d 9d 43 3e
       0.19848898 -0.15146428 -0.023188474 0.19103022
000070 fb c8 06 be bb 3d 60 bd f5 f8 20 bd 96 95 94 be
       -0.13162605 -0.05474637 -0.039299924 -0.29020375
000080 bf 41 46 3e b5 82 d1 3d a9 07 98 3e 98 e3 3f be
       0.19361018 0.102300085 0.29693344 -0.18739164
000090 b9 30 af bd 93 8e 42 bc ed 28 c5 be 4c 44 1e bf
       -0.08554215 -0.011874813 -0.38507786 -0.6182296
0000a0 b0 91 ec bd 3e e6 0f 3e 75 33 52 3e aa 8c eb be
       -0.11551225 0.14052674 0.20527442 -0.46005756
0000b0 f1 88 f2 bc a9 18 c4 3e f2 53 e2 3d 81 6e 95 3e
       -0.029606314 0.38300064 0.110511675 0.2918587
0000c0 ec e5 c9 3d ca 2f aa be 93 d7 14 be 75 97 40 bf
       0.09858307 -0.33239585 -0.1453536 -0.75231105
0000d0 84 86 ec bd 5e 13 04 bc 90 8a 92 3d e2 27 ea bf
       -0.11549094 -0.008061258 0.07155335 -1.8293421
0000e0 d7 a8 8c b8 71 72 69 3e 95 9b 11 3e 81 ce 70 be
       -6.707169e-05 0.22797562 0.14219506 -0.23516275
0000f0 3f 60 2d be 12 5d de 3d 26 58 46 be 6b 24 9e bc
       -0.16931246 0.108575955 -0.19369563 -0.019304475

layer3.bias f4 [4]
000000 45 d7 17 bd b1 db eb 3e 14 b5 36 be 5e de 38 be
       -0.03707053 0.4606605 -0.17842513 -0.18053576

exp_avg f4 [36, 108]
000000 88 c6 31 bb 63 3f b0 bb c0 40 b1 bb 8e b5 23 bb
       -0.002712639 -0.00537865 -0.00540933 -0.0024980041
000010 73 6c af bb 98 4e ae bb fb 78 10 bb b9 1f a8 bb
       -0.0053535043 -0.0053194277 -0.0022044766 -0.0051307348
000020 44 73 ad bb 11 a7 01 bb 06 60 a1 bb 6e 93 a7 bb
       -0.0052932817 -0.0019783417 -0.004924777 -0.0051140105
000030 bc 74 f4 ba 9d aa 9e bb 18 c8 a2 bb 60 f6 f1 ba
       -0.0018650512 -0.004842116 -0.0049677007 -0.0018460266
000040 98 90 9b bb 77 66 9c bb 69 47 32 bb 3d 2c aa bb
       -0.0047474615 -0.004772957 -0.0027203208 -0.005193262
000050 5b e0 ad bb 4e 85 16 bb 5c 82 ab bb e6 c3 b2 bb
       -0.0053062863 -0.002296764 -0.005234046 -0.005455482
000060 69 02 00 bb ef 6e a5 bb b6 45 ac bb 5a a2 f8 ba
       -0.0019532687 -0.0050486247 -0.0052573336 -0.0018969283
000070 57 c2 a7 bb 44 6b af bb 3d a4 fb ba 9d 66 9e bb
       -0.0051196027 -0.005353363 -0.0019198727 -0.00483401
000080 2c 60 a5 bb a2 09 f8 ba 86 68 a2 bb 39 95 a4 bb
       -0.005046865 -0.0018923769 -0.004956308 -0.0050226715
000090 c1 e0 20 bb 2e 04 ac bb f2 e4 b5 bb 51 62 00 bb
       -0.0024548026 -0.0052495217 -0.005550974 -0.001958985
0000a0 6b 05 ab bb 10 4b b4 bb d9 6a cd ba 2e 1e ac bb
       -0.0052191517 -0.005502112 -0.0015672102 -0.005252621
0000b0 bc 80 b5 bb db ca c9 ba 50 04 ac bb d4 6b b2 bb
       -0.005539028 -0.0015395539 -0.0052495375 -0.005444983
0000c0 62 57 db ba 16 d0 a7 bb 14 2f b2 bb ea 91 e2 ba
       -0.0016734416 -0.0051212413 -0.005437741 -0.0017285917
0000d0 60 cb a2 bb 45 0b ad bb a6 4a 16 bb 56 96 ab bb
       -0.004968092 -0.0052808844 -0.0022932678 -0.0052364273
0000e0 5e c1 ba bb 3b 21 fd ba 6c d6 aa bb 78 26 bf bb
       -0.0056993207 -0.0019312272 -0.0052135494 -0.0058334433
0000f0 95 3e ce ba f3 07 ab bb bb 2e ba bb ea 4f c5 ba
       -0.0015735204 -0.0052194535 -0.0056818402 -0.0015053723
000100 41 89 b2 bb d9 05 c6 bb 38 42 d4 ba f3 b8 a7 bb
       -0.005448491 -0.0060431776 -0.0016194051 -0.005118483
000110 03 a9 b8 bb 45 f8 d2 ba 18 63 a7 bb 3a f3 bc bb
       -0.005635382 -0.0016095719 -0.0051082484 -0.0057662996
000120 06 98 18 bb 7e 2d ac bb 1f c5 c0 bb 8f 0f 06 bb
       -0.0023283972 -0.0052544465 -0.0058828737 -0.002045605
000130 7c b0 a4 bb ce 56 ba bb 9a 25 ec ba 81 81 a7 bb
       -0.0050259214 -0.0056866175 -0.0018016577 -0.0051118736
000140 08 bc c0 bb c6 1b e6 ba 1b 80 ac bb a9 f6 c2 bb
       -0.00588179 -0.0017555885 -0.005264295 -0.0059498143
000150 73 c3 ed ba a9 81 a9 bb cb 11 c3 bb 26 34 e6 ba
       -0.0018139913 -0.0051729274 -0.005953049 -0.0017563149
000160 95 0d a5 bb 8a db be bb 8c c4 2d bb 13 dd a4 bb
       -0.0050370195 -0.005824511 -0.0026514856 -0.005031237
000170 2e 47 b8 bb 3b 8c 16 bb f9 7e a2 bb ed af bb bb
       -0.0056237197 -0.0022971767 -0.004958984 -0.005727759
000180 fd f9 0a bb 16 e1 a3 bb 1e 2c ba bb 10 b3 0a bb
       -0.0021206134 -0.0050011976 -0.0056815287 -0.0021163858
000190 52 a2 ad bb 83 bc c4 bb eb 33 0f bb 21 bd aa bb
       -0.005298891 -0.0060039177 -0.0021851014 -0.005210534
0001a0 09 18 c2 bb bf c1 0b bb 81 13 aa bb f1 cf c9 bb
       -0.0059232754 -0.0021325198 -0.0051903133 -0.0061588218
0001b0 a3 6b 09 3c 64 b3 70 3c af 0c 7d 3c 84 8e f4 3b
       0.008387479 0.014691208 0.015444919 0.0074632782
0001c0 21 28 76 3c b3 8f 7d 3c fc ce d1 3b 23 74 6d 3c
       0.015024216 0.015476155 0.0064028483 0.014493021
0001d0 a4 f9 7b 3c 65 5a bc 3b 4b d2 63 3c 09 43 75 3c
       0.015379343 0.0057480806 0.013905118 0.014969596
0001e0 e8 6f b5 3b 53 c8 5e 3c 67 7d 70 3c a2 8d b5 3b
       0.005537022 0.013597566 0.014678336 0.0055405656
0001f0 d8 91 5a 3c f9 b4 69 3c aa d1 0c 3c 85 2c 61 3c
       0.013340436 0.014264339 0.00859491 0.013743524
000200 dd eb 72 3c 46 91 e6 3b 8f 09 6b 3c 24 9e 7e 3c
       0.014826742 0.007036361 0.014345541 0.015540633
000210 2f f0 b6 3b 07 a8 66 3c 0e 0e 73 3c 92 37 b0 3b
       0.0055828313 0.014078147 0.014834894 0.0053777182
000220 ad cb 67 3c 69 f6 76 3c 99 1c ba 3b f0 3b 58 3c
       0.014147681 0.015073397 0.0056796786 0.013197884
000230 a9 19 6b 3c b2 9f be 3b e2 7f 5e 3c 3c a8 6e 3c
       0.01434938 0.005817377 0.013580294 0.014566477
000240 4f dd 04 3c b2 8b 64 3c eb c0 7f 3c 63 0b cd 3b
       0.008109405 0.013949322 0.01560996 0.006257461
000250 6b 8a 68 3c 8d bb 7c 3c 71 8e 93 3b f0 c1 69 3c
       0.014193158 0.015425575 0.0045030643 0.01426743
000260 21 6a 79 3c ef 0f 8f 3b d6 7d 66 3c 90 fb 71 3c
       0.015223057 0.004365913 0.014068088 0.01476945
000270 88 37 a3 3b 89 36 5e 3c ec b0 73 3c 16 b1 ae 3b
       0.004980985 0.013562807 0.014873724 0.005331169
000280 b4 6d 5a 3c 32 5d 72 3c cc a2 f2 3b 28 8a 69 3c
       0.013331819 0.014792727 0.007404661 0.01425413
000290 1c f6 83 3c 1c 71 bf 3b 14 39 68 3c b2 98 84 3c
       0.016108565 0.005842341 0.014173765 0.016186092
0002a0 bc 6e 8a 3b 94 c3 64 3c 35 2b 7b 3c 98 bb 81 3b
       0.0042246263 0.013962645 0.015330126 0.0039591305
0002b0 36 2c 6b 3c 07 b5 82 3c 6c 2e 94 3b cf 3d 5b 3c
       0.014353802 0.015955461 0.0045221355 0.013381436
0002c0 4c be 76 3c e0 b2 9d 3b 0b 35 5f 3c 4f 36 82 3c
       0.015060019 0.0048125833 0.013623486 0.015895037
0002d0 26 e7 e7 3b a1 33 6a 3c 10 10 87 3c e9 24 c3 3b
       0.0070771156 0.014294536 0.016487151 0.005955328
0002e0 29 ac 5a 3c 40 8e 80 3c 37 30 9a 3b 8e 7f 5c 3c
       0.01334671 0.01569283 0.0047054547 0.013458146
0002f0 e4 36 81 3c 91 ec 8f 3b dc 85 63 3c ea 85 81 3c
       0.015773244 0.0043922146 0.013886895 0.015810926
000300 eb 43 9e 3b c8 1f 62 3c f5 eb 82 3c f1 48 a4 3b
       0.004829874 0.013801523 0.015981654 0.005013578
000310 28 cd 5f 3c 26 b6 83 3c d8 d9 f8 3b 24 08 5d 3c
       0.013659753 0.016078066 0.0075943284 0.01349071
000320 ba 04 80 3c 5f 2e d8 3b 8f 1e 55 3c 65 63 7f 3c
       0.015627254 0.0065973247 0.013007774 0.015587662
000330 28 65 bc 3b 50 9c 56 3c 1e f7 7b 3c 3a ad b3 3b
       0.0057493635 0.013098791 0.015378742 0.0054832967
000340 85 9d 6a 3c dd cc 85 3c fb 87 be 3b 2c eb 69 3c
       0.014319782 0.016333038 0.00581455 0.014277261
000350 b0 dd 85 3c a0 46 c3 3b c5 17 6c 3c 9c 38 8d 3c
       0.01634106 0.005959347 0.014409964 0.017238908
000360 6e fb 96 3a f9 53 44 3b 5f d7 57 3b 70 9f 78 3a
       0.0011519024 0.0029957278 0.0032934768 0.0009484207
000370 57 ac 4d 3b da 07 60 3b d8 2c 5b 3a ac 7f 44 3b
       0.003138324 0.0034184367 0.0008360869 0.0029983325
000380 1b a1 61 3b 2c a5 2a 3a 15 98 34 3b ee a8 55 3b
       0.0034428302 0.0006509598 0.0027556468 0.003260191
000390 3d 14 e2 39 44 6e 2b 3b 2c 35 4a 3b bf 4d bf 39
       0.00043121158 0.0026158253 0.0030854447 0.00036488284
0003a0 9e 1f 24 3b cf 1f 3a 3b 04 a6 98 3a af 8d 47 3b
       0.002504326 0.0028400307 0.0011646156 0.003044944
0003b0 28 72 5f 3b 55 6e 86 3a 82 a7 59 3b 08 da 74 3b
       0.0034095142 0.001025627 0.0033211415 0.0037361402
0003c0 eb c7 5c 3a 3c 27 52 3b 52 d8 6b 3b 65 82 4d 3a
       0.0008422124 0.0032066843 0.0035987091 0.00078395597
0003d0 78 c9 4d 3b ab 3e 6c 3b f6 b8 1f 3a fb 60 28 3b
       0.0031400602 0.0036048095 0.000609293 0.002569257
0003e0 c6 49 47 3b 74 6e 04 3a fa 41 2a 3b 44 4d 42 3b
       0.0030408963 0.0005051859 0.0025979267 0.0029648105
0003f0 3c 99 9d 3a 8a e7 5a 3b 89 ab 81 3b 62 c2 85 3a
       0.0012023817 0.0033402168 0.003957216 0.0010205025

exp_avg_sq f4 [36, 108]
000000 bf 90 c4 37 76 b7 28 38 7c 44 57 38 ac f8 ae 37
       2.3432423e-05 4.0225183e-05 5.1323776e-05 2.0858213e-05
000010 91 1c 24 38 c3 64 51 38 78 c4 a0 37 0c f3 1f 38
       3.912725e-05 4.9923325e-05 1.9164974e-05 3.813491e-05
000020 7d 07 4e 38 c4 c9 a3 37 72 ac 1f 38 e6 d5 4e 38
       4.91212e-05 1.9525069e-05 3.8069156e-05 4.9313436e-05
000030 d7 84 b7 37 1c 6b 24 38 ef a5 57 38 a6 55 d1 37
       2.1877158e-05 3.92004e-05 5.1414532e-05 2.4954625e-05
000040 61 a4 2c 38 7e c4 63 38 82 fe ad 37 99 0c 1d 38
       4.1161085e-05 5.4304015e-05 2.0741722e-05 3.744345e-05
000050 a2 61 4b 38 6b ca 8b 37 4d 7c 11 38 c4 af 3d 38
       4.84899e-05 1.666435e-05 3.4686458e-05 4.5224806e-05
000060 51 dd 69 37 ea 3d 07 38 c6 d2 30 38 57 2b 6d 37
       1.39394115e-05 3.224417e-05 4.2157968e-05 1.4136392e-05
000070 63 b1 08 38 87 9a 32 38 78 89 8f 37 19 6d 13 38
       3.259013e-05 4.2582422e-05 1.7110942e-05 3.5149136e-05
000080 2d a0 42 38 8a f1 b5 37 c6 65 23 38 44 78 59 38
       4.640238e-05 2.1689357e-05 3.8957012e-05 5.1848838e-05
000090 dd f1 9c 37 fc 14 14 38 70 5e 42 38 1b 8c 65 37
       1.8709276e-05 3.5305493e-05 4.6341156e-05 1.36820845e-05
0000a0 fa 90 01 38 b4 16 2c 38 da 75 2d 37 fe cc e2 37
       3.0891017e-05 4.102914e-05 1.0339043e-05 2.7036756e-05
0000b0 c1 37 16 38 e5 b9 2b 37 38 13 e6 37 8c d4 15 38
       3.581471e-05 1.0235676e-05 2.7427086e-05 3.5722318e-05
0000c0 5f 37 5c 37 58 90 05 38 96 f3 2d 38 0f eb 9b 37
       1.3125914e-05 3.18441e-05 4.147327e-05 1.8586898e-05
0000d0 02 80 1c 38 6a d1 4d 38 bc 21 a1 37 bf dc 15 38
       3.7312515e-05 4.907084e-05 1.9208404e-05 3.5729954e-05
0000e0 61 aa 44 38 ec 0a 6a 37 c1 41 02 38 c3 17 2f 38
       4.688872e-05 1.395003e-05 3.1055653e-05 4.174538e-05
0000f0 18 f0 2d 37 e7 9d e3 37 c5 e0 16 38 dd b5 26 37
       1.0367505e-05 2.7134038e-05 3.597212e-05 9.936714e-06
000100 be 9a e6 37 b2 da 16 38 84 ff 54 37 13 f4 03 38
       2.7490194e-05 3.5966463e-05 1.2695677e-05 3.1460146e-05
000110 7a c0 2b 38 ae 35 98 37 bc c4 1c 38 21 58 4c 38
       4.0948835e-05 1.8144809e-05 3.737652e-05 4.8719467e-05
000120 94 26 ba 37 4e 54 21 38 21 60 55 38 36 16 93 37
       2.2190892e-05 3.8463906e-05 5.0872684e-05 1.7534108e-05
000130 48 09 12 38 22 06 45 38 1e 95 67 37 a2 cb 06 38
       3.4817756e-05 4.697417e-05 1.3803392e-05 3.2137737e-05
000140 3c 53 35 38 bf 5e 5d 37 0b 8f 07 38 f0 76 32 38
       4.323128e-05 1.3194686e-05 3.2319727e-05 4.2549276e-05
000150 2f 60 86 37 19 1d 12 38 a1 03 40 38 75 d8 ae 37
       1.6018834e-05 3.4836212e-05 4.5779747e-05 2.0843212e-05
000160 3e 6c 22 38 e6 ce 55 38 0c 79 db 37 00 60 2c 38
       3.872462e-05 5.0975847e-05 2.6163201e-05 4.1097403e-05
000170 41 2a 64 38 90 49 c2 37 ce 53 23 38 5f 00 5c 38
       5.4398788e-05 2.3160857e-05 3.8940278e-05 5.2452433e-05
000180 0b 6a ab 37 34 20 1d 38 97 c7 52 38 eb ca a6 37
       2.0434169e-05 3.746171e-05 5.0253784e-05 1.9883233e-05
000190 0d 81 1e 38 a1 61 51 38 d7 47 b7 37 ca 5a 23 38
       3.7790323e-05 4.9920407e-05 2.1848753e-05 3.8946782e-05
0001a0 2d ae 57 38 3f 36 cf 37 8a 50 2c 38 67 da 64 38
       5.142221e-05 2.4701583e-05 4.1083003e-05 5.456284e-05
0001b0 33 80 98 39 e0 45 3d 3a b4 05 74 3a ee 59 6d 39
       0.00029087215 0.000722019 0.0009308711 0.00022635583
0001c0 fa 20 3b 3a 60 30 74 3a 92 25 45 39 a7 52 3a 3a
       0.0007138398 0.000931507 0.0001880138 0.0007107653
0001d0 03 3d 73 3a f9 3d 52 39 81 4e 3c 3a 0f 48 77 3a
       0.0009278806 0.00020050247 0.0007183329 0.000943304
0001e0 3c 48 89 39 5e ea 40 3a 1d 08 82 3a 61 97 b4 39
       0.00026184495 0.0007359142 0.0009920631 0.00034445061
0001f0 94 b2 48 3a ee 1e 88 3a 32 c8 72 39 11 8b 34 3a
       0.0007656005 0.0010385194 0.00023153497 0.00068871776
000200 d1 2a 6b 3a f8 32 11 39 f3 df 2d 3a 22 21 64 3a
       0.0008970919 0.00013847265 0.00066327973 0.0008702447
000210 a0 b8 b6 38 5f 46 2a 3a e1 60 5a 3a 4b ff ca 38
       8.7128254e-05 0.00064954715 0.0008330476 9.6796626e-05
000220 66 d4 2c 3a 95 9e 5e 3a 65 34 2c 39 0a 9b 34 3a
       0.0006592929 0.00084922585 0.00016422717 0.00068895577
000230 b3 62 72 3a cd 64 8f 39 14 86 41 3a 7e f3 84 3a
       0.0009246275 0.00027350188 0.0007382345 0.0010143367
000240 57 95 4d 39 a0 92 2d 3a 49 3d 63 3a c8 62 c0 38
       0.00019605957 0.0006621275 0.0008668495 9.173673e-05
000250 9a bc 22 3a 2f 92 54 3a 2a 1a 2f 38 bc 48 1d 3a
       0.00062079134 0.0008108941 4.174762e-05 0.0005999913
000260 46 1f 43 3a 9c 8e 39 38 56 e8 1f 3a e7 03 44 3a
       0.000744332 4.4240252e-05 0.00060999894 0.0007477388
000270 96 62 ca 38 e2 c2 2a 3a 45 de 5c 3a 96 f9 5e 39
       9.650474e-05 0.0006514025 0.0008425455 0.00021264548
000280 f7 5e 3c 3a 4f 43 7e 3a 8c 93 59 39 ea f5 2e 3a
       0.0007185782 0.0009699361 0.00020749698 0.00066742173
000290 52 95 66 3a 86 52 d3 38 10 68 23 3a fa ed 58 3a
       0.0008796054 0.00010076635 0.0006233463 0.00082752074
0002a0 39 ee 3c 38 23 6d 1d 3a 8f 4c 46 3a 96 e4 30 38
       4.5044555e-05 0.00060053373 0.00075645087 4.2174557e-05
0002b0 d8 d1 1f 3a a2 7e 44 3a 0a 6d b9 38 34 5c 28 3a
       0.0006096638 0.00074956764 8.8417975e-05 0.0006422431
0002c0 fb b5 59 3a 60 ac 50 39 9f ad 3a 3a a7 33 7b 3a
       0.000830501 0.0001990064 0.00071212085 0.0009582587
0002d0 a3 41 8c 39 c8 e5 38 3a 92 4f 78 3a ff 6e 2e 39
       0.00026751784 0.0007053283 0.0009472306 0.00016635282
0002e0 83 eb 2e 3a 34 0a 71 3a 39 8f c9 38 fb e9 2a 3a
       0.0006672667 0.0009194941 9.611104e-05 0.0006519851
0002f0 fd 39 64 3a f7 c3 b4 38 4c 03 2c 3a ad 38 61 3a
       0.00087061507 8.61957e-05 0.00065617706 0.0008591514
000300 24 db 11 39 b8 7d 30 3a 59 62 6d 3a 42 1a 7c 39
       0.00013909914 0.0006732601 0.00090554875 0.00024042375
000310 61 70 3d 3a 2e 40 81 3a 6c 1b b6 39 56 c3 42 3a
       0.00072265236 0.0009861046 0.00034734176 0.000742962
000320 8c 5c 83 3a c8 a3 8e 39 82 cb 3c 3a e0 29 83 3a
       0.0010022088 0.00027206377 0.0007201956 0.0010006987
000330 60 50 5b 39 5e bf 38 3a a5 3d 80 3a 62 77 4d 39
       0.0002091541 0.0007047559 0.0009783997 0.00019594797
000340 0d f8 39 3a 18 6a 7d 3a 0a ac 79 39 f7 46 3c 3a
       0.00070941524 0.0009666993 0.0002381058 0.00071822054
000350 d8 a6 80 3a cf 9b a2 39 30 63 44 3a e4 85 85 3a
       0.0009815348 0.00031015134 0.0007491587 0.0010186997
000360 55 41 e4 38 ae 4b c2 38 3c 2f 00 39 ad 8b d9 38
       0.00010884056 9.264737e-05 0.00012224627 0.00010373383
000370 28 39 b2 38 7a 3c e7 38 a9 31 ce 38 53 e4 a4 38
       8.4983476e-05 0.00011026203 9.8320954e-05 7.862658e-05
000380 1f 89 d8 38 ce 17 ce 38 2d 26 a3 38 36 2c d9 38
       0.000103252234 9.8272794e-05 7.7795565e-05 0.00010355601
000390 6e 4e db 38 46 3e b2 38 da 84 ef 38 b1 d8 eb 38
       0.000104573424 8.499301e-05 0.000114211536 0.00011246035
0003a0 a1 68 c9 38 15 dd 07 39 45 24 d8 38 7a 15 aa 38
       9.6039155e-05 0.00012956963 0.00010306438 8.110232e-05
0003b0 60 be e2 38 b8 2a c6 38 b8 7e 87 38 df b5 b8 38
       0.0001081198 9.449333e-05 6.460905e-05 8.80768e-05
0003c0 a6 f3 ad 38 41 6e 50 38 d9 60 99 38 78 5b ab 38
       8.294666e-05 4.9693746e-05 7.313648e-05 8.170953e-05
0003d0 36 81 53 38 87 81 9a 38 b6 b3 bf 38 d4 b9 8c 38
       5.0426657e-05 7.3674186e-05 9.1410635e-05 6.7103334e-05
0003e0 92 6b c1 38 5c 3a e0 38 8f 75 b6 38 a8 8a f9 38
       9.222994e-05 0.000106920226 8.700333e-05 0.00011899072
0003f0 7d b8 cb 38 34 06 96 38 54 e5 c9 38 82 1a ab 38
       9.714158e-05 7.153713e-05 9.6271426e-05 8.158853e-05

exp_avg f4 [36]
000000 8d ad 76 3a fc db 38 bb e1 45 1e ba fd 33 18 3a
       0.00094100164 -0.0028207293 -0.00060376344 0.00058060867
000010 a3 6f 7d ba 03 6b b1 39 13 09 e0 39 ed c7 51 3b
       -0.0009667819 0.000338398 0.0004273137 0.0032010034
000020 91 a7 33 3b 62 0d 94 b9 58 2b 9d ba c3 f4 aa 3a
       0.002741311 -0.0002823873 -0.0011991067 0.0013042915
000030 5b f9 48 ba 54 fd 13 3b 63 b3 4d bb 15 9a 2c 3b
       -0.00076665514 0.0022581415 -0.003138744 0.0026336957
000040 41 8a b2 39 b2 d8 84 39 9a 4c 4b ba fc b6 45 3b
       0.00034053813 0.00025338453 -0.000775525 0.0030168882
000050 8c 4d 0d ba ef 33 b8 39 3d 5d 9d 3a 5e 16 06 b9
       -0.00053902785 0.00035133908 0.0012005937 -0.00012787568
000060 2f ca d1 3a 3c f0 dd ba b2 f7 61 ba 05 6f 34 3a
       0.001600569 -0.0016932557 -0.00086199783 0.0006882998
000070 6f 63 25 3b e9 f6 06 39 4b 26 93 37 29 1e 6c b9
       0.002523627 0.00012871217 1.7541597e-05 -0.0002251795
000080 15 b9 6e 3a 82 0a 76 3b f7 3f 28 ba 54 1a a4 38
       0.0009106559 0.0037542884 -0.0006418223 7.8250334e-05

exp_avg_sq f4 [36]
000000 25 60 de 35 c5 7a ea 37 5b c9 97 36 84 79 d3 37
       1.6568271e-06 2.7952143e-05 4.5235915e-06 2.5209745e-05
000010 52 d6 1c 37 63 af 04 36 47 45 07 37 7f 96 ab 37
       9.348225e-06 1.9771621e-06 8.062757e-06 2.0454869e-05
000020 78 d5 d5 36 ba 36 5b 36 8e 2e ad 36 e3 bd 8f 36
       6.3727457e-06 3.2665398e-06 5.1612215e-06 4.283838e-06
000030 1d c8 e2 36 26 95 d7 36 57 da 18 37 9d c6 7f 37
       6.758621e-06 6.4248625e-06 9.110742e-06 1.5245428e-05
000040 45 27 0f 38 63 1a ce 37 b8 b4 56 37 15 f9 62 37
       3.413043e-05 2.4569401e-05 1.2797471e-05 1.3528644e-05
000050 b5 4f 12 38 8f 29 a5 36 44 e6 07 37 eb 58 48 36
       3.4883346e-05 4.9222213e-06 8.10024e-06 2.985408e-06
000060 ff 4c 82 36 91 fe 03 39 7b 4e 7d 37 92 7c 76 36
       3.8832654e-06 0.00012587967 1.5098248e-05 3.6729366e-06
000070 df 36 0f 37 e3 35 f6 35 ca 44 92 35 f6 a7 8f 38
       8.53624e-06 1.8344111e-06 1.0897868e-06 6.8500565e-05
000080 5f dc 49 37 06 8a 9a 38 b4 80 f0 36 bf 59 62 36
       1.2031843e-05 7.369001e-05 7.1675404e-06 3.3728863e-06

exp_avg f4 [16, 36]
000000 bb 2a 0f ba 91 e9 3c 39 26 82 b8 39 28 60 66 bb
       -0.00054613844 0.00018016087 0.00035192183 -0.0035152528
000010 8d 72 a8 ba a2 1a f2 b9 c9 9d 3e bb 07 25 05 b9
       -0.0012851522 -0.0004617768 -0.0029085747 -0.00012697662
000020 31 00 10 3a e8 c8 94 ba c6 48 dd ba a8 f0 f2 3a
       0.00054931926 -0.0011351379 -0.001688265 0.0018534856
000030 88 d6 87 3b b3 cf 64 b9 54 de 57 ba 34 99 20 bb
       0.004145447 -0.00021821148 -0.00082347286 -0.0024505379
000040 18 b9 f0 ba c3 0e c9 ba 32 d4 0f 3b 43 8a a0 39
       -0.0018365709 -0.0015339482 0.0021946547 0.0003062059
000050 e1 81 09 3b 42 13 ed ba de cf b1 ba b4 6c 9e ba
       0.0020981955 -0.0018087404 -0.0013565978 -0.0012086839
000060 45 64 0f ba f2 71 09 bb b0 24 e0 3a 48 e6 ff 39
       -0.00054699584 -0.0020972458 0.0017100777 0.00048808963
000070 dc b1 fc b9 47 9c e2 ba 85 1a 22 ba 22 4a 4e bb
       -0.000481977 -0.0017289006 -0.0006183761 -0.0031477292
000080 56 28 c3 3a 5b 3e 13 ba dd cc 1b bb 2a fd 78 3a
       0.001488934 -0.00056168967 -0.002377323 0.00094981736
000090 04 00 00 80 04 00 00 80 04 00 00 00 04 00 00 80
       -6e-45 -6e-45 6e-45 -6e-45
0000a0 04 00 00 80 04 00 00 80 04 00 00 80 04 00 00 80
       -6e-45 -6e-45 -6e-45 -6e-45
0000b0 04 00 00 00 04 00 00 80 04 00 00 80 04 00 00 00
       6e-45 -6e-45 -6e-45 6e-45
0000c0 04 00 00 00 04 00 00 00 04 00 00 80 04 00 00 80
       6e-45 6e-45 -6e-45 -6e-45
0000d0 04 00 00 80 04 00 00 80 04 00 00 00 04 00 00 00
       -6e-45 -6e-45 6e-45 6e-45
0000e0 04 00 00 00 04 00 00 80 04 00 00 80 04 00 00 80
       6e-45 -6e-45 -6e-45 -6e-45
0000f0 04 00 00 00 04 00 00 80 04 00 00 00 04 00 00 00
       6e-45 -6e-45 6e-45 6e-45
000100 04 00 00 80 04 00 00 80 04 00 00 00 04 00 00 80
       -6e-45 -6e-45 6e-45 -6e-45
000110 04 00 00 00 04 00 00 80 04 00 00 80 04 00 00 80
       6e-45 -6e-45 -6e-45 -6e-45
000120 fa e8 c8 33 89 8c 8e b3 82 7e 76 32 d1 3e a1 34
       9.355604e-08 -6.6379535e-08 1.4347849e-08 3.0034292e-07
000130 4a 7a 62 34 b1 59 1d 34 28 93 82 34 b4 83 99 33
       2.1092379e-07 1.4654394e-07 2.4321457e-07 7.148574e-08
000140 58 00 2f b4 1c 23 79 33 d9 01 81 34 5f 5b 41 b4
       -1.629827e-07 5.8006762e-08 2.4029467e-07 -1.8007766e-07
000150 42 70 d8 b4 74 a2 bc 33 f0 40 c0 32 2b b8 9e 34
       -4.0314814e-07 8.783982e-08 2.2381272e-08 2.9563793e-07
000160 fb 0d 16 34 49 93 f8 33 15 71 32 b4 00 53 37 33
       1.3974925e-07 1.1575191e-07 -1.6618681e-07 4.2683496e-08
000170 04 83 49 b4 25 7b 83 34 ee 64 21 34 04 af 5d 34
       -1.8767247e-07 2.449025e-07 1.5031011e-07 2.0645899e-07
000180 cf 04 eb 33 bb e9 64 34 a5 58 11 b4 86 de ab b3
       1.0943915e-07 2.1319185e-07 -1.3536426e-07 -8.003285e-08
000190 92 ac 08 34 74 48 8a 34 86 4f 00 2f 00 8b 99 34
       1.2728768e-07 2.575722e-07 1.1669785e-10 2.8599607e-07
0001a0 fa 5a 17 b4 57 91 36 34 0b 30 5a 34 e6 3c f5 b1
       -1.4096068e-07 1.7002945e-07 2.032031e-07 -7.137362e-09
0001b0 9f 47 48 39 81 a9 56 ba c0 d4 9d ba 0f 72 fd 3b
       0.00019100167 -0.000818871 -0.0012041554 0.007734544
0001c0 76 a2 a7 3a 1d 7c 15 ba 7b 1c dc 3b f3 f3 aa 39
       0.0012789506 -0.0005702393 0.0067172623 0.00032606683
0001d0 cd 75 8b 3a ff 3c 20 3b 8c 74 e2 3a 50 7f 59 bb
       0.0010639966 0.002445042 0.0017277165 -0.0033187456
0001e0 50 a8 1c bc c9 a1 d3 39 5a 7f a2 3a 05 0f 74 3b
       -0.009561613 0.00040365595 0.0012397573 0.0037240398
0001f0 ce 1a 82 3b 8b 7e 6c 3b eb cc b4 bb cc f9 eb b8
       0.0039704805 0.0036086168 -0.005517592 -0.000112522015
000200 63 b3 95 bb 9f c8 0c 3b ab 51 32 3b 5a a3 dd 3a
       -0.0045685037 0.0021481884 0.0027209322 0.0016909644
000210 b6 ad f2 3a d6 d1 80 3b 0e ce 81 bb d2 4f 35 3a
       0.0018514905 0.0039312644 -0.003961331 0.0006916496
000220 58 3d 93 39 88 39 1f 3b de 38 16 3b fc 26 04 3c
       0.0002808373 0.0024295766 0.002292208 0.008065935
000230 dc 6a 2d bb 5f e7 52 39 4b c2 7d 3b 7a 88 83 bb
       -0.0026461398 0.00020113353 0.0038720544 -0.004014072
000240 7e 75 ab 34 2c a2 19 b5 3a 6e 84 b4 50 53 84 35
       3.193672e-07 -5.723293e-07 -2.4667116e-07 9.859014e-07
000250 c7 19 18 35 bf 1e 96 34 44 d8 7e 35 94 5a 54 34
       5.6661924e-07 2.7962048e-07 9.493708e-07 1.9776991e-07
000260 c9 18 96 33 bd 28 b7 34 23 e7 82 34 20 59 fc b3
       6.989428e-08 3.4116047e-07 2.438256e-07 -1.1750876e-07
000270 60 89 d0 b5 d6 d3 90 34 84 9c 35 b4 aa 1f 44 35
       -1.5537189e-06 2.697622e-07 -1.6913879e-07 7.3061767e-07
000280 34 6a f8 34 f1 ef ff 34 49 86 43 b5 06 5c 73 34
       4.6270873e-07 4.7672032e-07 -7.283857e-07 2.2664616e-07
000290 de f1 26 b5 84 57 ea 34 5e d9 82 34 ae 7a cb 34
       -6.219178e-07 4.3649572e-07 2.4372542e-07 3.7900958e-07
0002a0 db db 11 35 e2 5a 01 35 77 6b 16 b5 06 d0 a6 34
       5.433664e-07 4.8188497e-07 -5.6035736e-07 3.1071266e-07
0002b0 18 79 b8 34 70 c7 4f 35 c0 58 6d 34 10 8d 85 35
       3.4360778e-07 7.740373e-07 2.2104632e-07 9.950327e-07
0002c0 eb 76 ca b4 0a 1f 0e 35 e8 5b 07 35 4d 0e ad b4
       -3.7711956e-07 5.294429e-07 5.042516e-07 -3.2234166e-07
0002d0 04 00 00 80 04 00 00 00 04 00 00 00 04 00 00 80
       -6e-45 6e-45 6e-45 -6e-45
0002e0 04 00 00 80 04 00 00 00 04 00 00 80 04 00 00 80
       -6e-45 6e-45 -6e-45 -6e-45
0002f0 04 00 00 80 04 00 00 80 04 00 00 00 04 00 00 00
       -6e-45 -6e-45 6e-45 6e-45
000300 04 00 00 00 04 00 00 80 04 00 00 00 04 00 00 80
       6e-45 -6e-45 6e-45 -6e-45
000310 04 00 00 80 04 00 00 80 04 00 00 00 04 00 00 80
       -6e-45 -6e-45 6e-45 -6e-45
000320 04 00 00 00 04 00 00 00 04 00 00 80 04 00 00 00
       6e-45 6e-45 -6e-45 6e-45
000330 04 00 00 80 04 00 00 80 04 00 00 00 04 00 00 80
       -6e-45 -6e-45 6e-45 -6e-45
000340 04 00 00 80 04 00 00 80 04 00 00 80 04 00 00 80
       -6e-45 -6e-45 -6e-45 -6e-45
000350 04 00 00 00 04 00 00 80 04 00 00 80 04 00 00 00
       6e-45 -6e-45 -6e-45 6e-45
000360 ad 69 0a bc c3 1f bd 3c 85 1e 0c 3b fe c1 41 3b
       -0.008448047 0.023086434 0.0021380496 0.0029565091
000370 f0 21 92 bb b0 b7 71 bb ef ee 1c 3b 7a ae 57 bb
       -0.004459612 -0.0036883168 0.0023946126 -0.0032910393
000380 dd 3b 8e bb 1f fb e3 3a fd 53 a4 3a 4a ed 80 bc
       -0.0043406324 0.0017393566 0.0012537237 -0.015738148
000390 d5 4f ce bb 3e 89 25 bc 30 2e ec 3c 4c ce f3 bb
       -0.006296138 -0.010103522 0.028830618 -0.007440364
0003a0 7e 14 dd b9 9f f0 90 bb 89 14 38 bc 39 05 44 bc
       -0.00042167673 -0.0044232155 -0.011235365 -0.011964136
0003b0 73 9e a5 3b 80 af 82 bb 49 ec 0d 3b 21 e4 91 ba
       0.005054289 -0.0039882064 0.002165573 -0.001113061
0003c0 6c 5d f0 bb c6 df bc b9 d5 85 54 3b 8c 20 20 39
       -0.0073353555 -0.00036024879 0.0032428403 0.00015270914
0003d0 33 65 7a bc 1b 4d 27 bb 49 6d 54 3b 11 ad 91 3b
       -0.015282917 -0.0025528136 0.0032413772 0.00444568
0003e0 90 84 d6 3a 5f f2 b9 bc 77 03 7a ba 94 9f 2d bc
       0.0016366411 -0.02269858 -0.00095372595 -0.010597128
0003f0 72 08 6d b9 20 d7 9a ba 3c c2 61 3a 93 36 d4 3a
       -0.00022605227 -0.001181338 0.0008612012 0.0016190581

exp_avg_sq f4 [16, 36]
000000 c0 e0 be 38 23 43 cb 39 e9 3a 32 38 05 f2 91 3a
       9.101769e-05 0.00038769198 4.249337e-05 0.001113475
000010 06 19 28 39 98 36 36 38 8c 17 46 3a f9 e0 b6 37
       0.0001603105 4.3443026e-05 0.00075566093 2.1800852e-05
000020 c9 bd 8d 39 d4 5c 4e 38 1a eb ab 39 68 9e 48 3a
       0.00027035017 4.920068e-05 0.00032790826 0.0007652999
000030 3b e7 78 3a 3c ff 67 38 d9 ca f1 39 c1 fd 2d 3a
       0.0009494905 5.5312397e-05 0.00046118235 0.00066372385
000040 8a 35 a9 39 6c de ad 39 a9 ca f8 38 37 cf c6 38
       0.00032274082 0.0003316285 0.0001186331 9.4799725e-05
000050 fb 38 14 3a 51 fa 10 3a 6b 3a 3e 39 64 03 39 39
       0.00056542427 0.0005530464 0.00018141574 0.00017644238
000060 e9 98 a5 38 22 9c 18 3a 05 48 aa 39 f4 78 71 39
       7.896295e-05 0.00058216054 0.00032478585 0.0002302861
000070 1f 15 35 39 96 4e 33 39 ca 26 55 38 e0 68 92 3a
       0.00017269373 0.00017100046 5.0819282e-05 0.0011170171
000080 04 d8 9f 39 82 e7 39 39 6b 84 02 3a b4 f8 be 37
       0.00030487787 0.00017729218 0.0004978838 2.2765576e-05
000090 2b 02 27 2c bf 4c 7d 2c d5 5d 9a 2b 93 95 03 2e
       2.373333e-12 3.5996065e-12 1.0968402e-12 2.99188e-11
0000a0 00 c1 f2 2c db 67 2d 2c 6a 5f c7 2d 5e b7 06 2b
       6.899481e-12 2.464243e-12 2.2666053e-11 4.7860836e-13
0000b0 6e 67 a0 2c a3 ee a8 2c 8d a3 91 2d 88 ec 8a 2e
       4.5589565e-12 4.801341e-12 1.6557223e-11 6.31753e-11
0000c0 91 16 19 2e f0 e4 fa 2c 7d 86 e4 2c aa 2c 77 2d
       3.4808215e-11 7.1308445e-12 6.495081e-12 1.4050242e-11
0000d0 92 dd 25 2d d2 79 9b 2c 62 6f 1c 2d d2 4b c0 2b
       9.428363e-12 4.4188897e-12 8.892305e-12 1.3663465e-12
0000e0 bf 2c 33 2d 5e 6e 4f 2d 68 3b 03 2d 8c 4b 8c 2c
       1.0184908e-11 1.1791094e-11 7.459679e-12 3.9874267e-12
0000f0 63 a2 d1 2b ca 00 38 2d 5e 42 13 2d cf c7 a3 2c
       1.4895415e-12 1.0459364e-11 8.370719e-12 4.654922e-12
000100 49 9d 3a 2c 65 43 9b 2c ec 49 8b 2c 28 f1 c9 2d
       2.65195e-12 4.4128473e-12 3.9588246e-12 2.295815e-11
000110 15 5f 1f 2d 56 4b 70 2b 91 60 2d 2e ac 66 43 2d
       9.059216e-12 8.536968e-13 3.9421414e-11 1.1107264e-11
000120 c0 01 fe 34 c6 c9 09 37 0f bb f1 35 b5 b2 bc 36
       4.731246e-07 8.212815e-06 1.801034e-06 5.623641e-06
000130 a1 5b a7 35 9d 32 c4 35 41 71 90 36 c3 2e 4c 34
       1.2469137e-06 1.4617868e-06 4.304719e-06 1.9015992e-07
000140 db b1 02 37 97 dc 80 35 f2 60 9d 36 dd be f2 36
       7.790014e-06 9.600943e-07 4.6902505e-06 7.2343814e-06
000150 ef 17 ee 36 91 6d d8 34 70 f5 ee 36 54 a4 93 36
       7.095739e-06 4.0312855e-07 7.1215254e-06 4.4000717e-06
000160 94 60 08 36 23 b5 16 36 7e 1c 20 36 23 e3 71 35
       2.0321795e-06 2.2457177e-06 2.3858443e-06 9.0110024e-07
000170 ee c5 45 36 72 28 87 36 1f c8 02 36 77 11 ee 35
       2.9470498e-06 4.028022e-06 1.9487995e-06 1.7737465e-06
000180 31 a3 cc 35 98 9b 35 36 50 d7 24 36 15 92 64 36
       1.5246679e-06 2.706167e-06 2.4563233e-06 3.4059678e-06
000190 fd 51 70 35 c4 54 b6 35 dc 0f ff 35 b3 5f cf 36
       8.9526276e-07 1.3584727e-06 1.9003596e-06 6.1802216e-06
0001a0 e3 74 b5 35 3d 30 d7 35 49 f3 2d 36 2e de 16 36
       1.3519569e-06 1.6032787e-06 2.592062e-06 2.2481067e-06
0001b0 b6 bb 5f 38 8e e2 9e 38 15 93 4d 39 d7 e0 2e 3b
       5.3342163e-05 7.576226e-05 0.00019605116 0.0026684308
0001c0 8b b4 26 39 ab a5 9d 38 93 22 01 3b a8 e1 15 38
       0.00015898251 7.5172014e-05 0.0019704446 3.5734527e-05
0001d0 13 47 91 39 5a 36 b6 39 d0 90 49 39 ff ec 4d 3a
       0.0002770951 0.0003475424 0.000192228 0.00078554446
0001e0 71 f2 73 3b 26 97 00 38 b1 80 74 39 83 f4 46 3a
       0.0037223364 3.0658346e-05 0.00023317595 0.00075895357
0001f0 59 de 54 3a d2 d1 46 3a 98 ae a3 3a 49 a2 73 38
       0.00081202906 0.0007584366 0.0012487946 5.8086855e-05
000200 9d 4f 86 3a 25 3c db 39 7c a6 bb 39 59 ef 2b 39
       0.0010247115 0.00041815746 0.0003579146 0.00016396995
000210 7a 00 eb 38 ea b2 60 3a ff a2 61 3a 5c 93 3b 39
       0.00011205762 0.0008571582 0.0008607357 0.00017888605
000220 b2 19 c2 38 1e 97 84 39 86 30 4f 39 db fb 3b 3b
       9.255427e-05 0.00025289593 0.00019759135 0.0028684053
000230 d7 f8 f2 39 88 35 23 38 5d 30 51 3a c5 45 3f 3a
       0.00046343237 3.8912083e-05 0.0007979924 0.0007296468
000240 bb 56 0a 35 81 84 49 35 3c 80 30 36 33 1e 90 37
       5.1535216e-07 7.5071154e-07 2.6300686e-06 1.71802e-05
000250 f1 4b 0e 35 d3 27 9b 35 fb d0 6d 37 68 51 54 35
       5.300963e-07 1.155999e-06 1.4174958e-05 7.9094616e-07
000260 23 01 8f 36 e3 8e ab 36 43 99 32 35 01 de 27 36
       4.2618644e-06 5.1128313e-06 6.653319e-07 2.5014162e-06
000270 9d 34 e9 37 ba de fc 34 35 33 a3 35 e2 24 cc 36
       2.7800264e-05 4.7100713e-07 1.215935e-06 6.0839675e-06
000280 03 08 d2 36 46 a4 96 36 7e 30 65 37 4f b5 d7 34
       6.2594204e-06 4.4894723e-06 1.3660754e-05 4.017879e-07
000290 ae 5a c9 36 9e 66 0d 36 d5 0b 76 36 f4 8a 84 35
       6.0008233e-06 2.1070368e-06 3.6663744e-06 9.875207e-07
0002a0 90 aa 15 36 45 38 91 36 a9 40 da 36 42 ae a9 35
       2.230201e-06 4.3278874e-06 6.5044337e-06 1.2642197e-06
0002b0 35 bc 61 35 ec 42 11 36 70 c8 c1 35 c4 67 9e 37
       8.409291e-07 2.1645637e-06 1.4437956e-06 1.8883387e-05
0002c0 bc f7 0a 36 02 d4 44 35 e4 da af 36 11 2a be 36
       2.0707803e-06 7.33242e-07 5.2408886e-06 5.6673384e-06
0002d0 95 e6 83 29 f4 98 8d 2b a7 a4 f7 28 ce d5 43 2a
       5.857568e-14 1.0061106e-12 2.7493915e-14 1.7393658e-13
0002e0 9c 9c 8b 28 71 2a bc 29 92 ad 31 2a e2 d4 7d 2a
       1.5500019e-14 8.3562396e-14 1.5780977e-13 2.2544773e-13
0002f0 10 7e 93 2a 92 45 99 29 bf 63 06 29 c6 98 17 2b
       2.619992e-13 6.8066334e-14 2.9840493e-14 5.385799e-13
000300 62 bc 17 2b 90 fd 27 2b 98 24 c3 2b 4d f5 2b 2a
       5.390741e-13 5.9682207e-13 1.386574e-12 1.5272957e-13
000310 b9 57 c8 29 64 d4 48 29 88 24 d2 2a ae 82 1d 2b
       8.8970017e-14 4.459314e-14 3.7328842e-13 5.595896e-13
000320 42 77 5d 29 41 3b 1c 29 bc 77 71 2a a1 d7 8a 29
       4.9175297e-14 3.4690353e-14 2.1446641e-13 6.165837e-14
000330 6c 93 2d 2b cd e9 c6 29 08 f0 a4 29 ed 93 25 29
       6.1666536e-13 8.833524e-14 7.324702e-14 3.6765665e-14
000340 9a 7b 04 2b 94 0f 3b 2a bc e7 f1 29 51 19 41 2a
       4.706735e-13 1.6614341e-13 1.07427495e-13 1.7150627e-13
000350 b2 3c a9 29 71 24 d6 2a a8 ef 98 2a 03 40 a4 2a
       7.5156366e-14 3.8039323e-13 2.716692e-13 2.917667e-13
000360 3f 0b 91 39 c8 72 02 3b 32 e1 87 38 f4 45 1d 39
       0.00027664934 0.001990484 6.4792475e-05 0.00014998746
000370 33 21 de 38 d8 c0 26 39 bc 7c 0a 39 6d 69 95 38
       0.00010591969 0.00015902834 0.00013207173 7.124511e-05
000380 57 f6 f9 38 2b 9b a3 38 1b 76 4e 38 55 fa 43 3a
       0.000119191296 7.801348e-05 4.922422e-05 0.0007475962
000390 4b 8b 99 39 f9 67 da 39 d5 40 47 3b 9c 80 9e 39
       0.00029286215 0.00041657666 0.0030403633 0.0003023193
0003a0 9f bc 92 38 ac e4 0c 39 7d 47 d9 39 02 32 1f 3a
       6.996956e-05 0.00013436627 0.00041442728 0.00060728204
0003b0 bc a3 1b 39 2f 9c d8 38 8d 9f 27 38 a1 50 49 38
       0.00014842948 0.00010328774 3.9964496e-05 4.7997226e-05
0003c0 cd 93 8c 39 e5 b4 38 38 37 09 df 38 99 7f 79 38
       0.00026813 4.403749e-05 0.00010635185 5.948506e-05
0003d0 52 fd 71 3a e3 de e9 38 2e 90 68 38 87 27 52 39
       0.0009231168 0.00011151822 5.5447388e-05 0.00020041886
0003e0 74 53 2b 38 52 0a d2 3a 99 2b 1a 38 dd 9c b7 39
       4.08473e-05 0.0016024804 3.6757065e-05 0.00035021352
0003f0 31 e2 1f 38 11 50 49 38 66 ce 9b 39 07 83 41 3b
       3.811921e-05 4.7996702e-05 0.00029717683 0.0029527561

exp_avg f4 [16]
000000 fd 67 95 39 04 00 00 00 da 24 bd b2 96 fb 32 ba
       0.00028496972 6e-45 -2.2019254e-08 -0.00068276504
000010 f4 90 c4 b3 04 00 00 00 c4 b4 08 bb af 82 a9 b9
       -9.153328e-08 6e-45 -0.0020859698 -0.0003233156
000020 dd 05 df b8 c5 e1 06 3c c7 d0 04 b3 0b 3f 1f ba
       -0.00010634561 0.008232539 -3.0923527e-08 -0.0006074763
000030 29 5e 9e a6 f7 9b 6f 37 9a 58 d3 b2 1a 43 39 ba
       -1.0988975e-15 1.42818235e-05 -2.4603924e-08 -0.0007067189

exp_avg_sq f4 [16]
000000 6d b9 ee 36 01 3e a9 2a 1f 61 8e 33 42 82 95 37
       7.114539e-06 3.0063454e-13 6.6300565e-08 1.782284e-05
000010 58 b2 08 34 e7 f0 d2 27 70 df 59 37 59 25 b2 37
       1.2730868e-07 5.8547896e-15 1.2986231e-05 2.1236645e-05
000020 7e 71 23 35 98 35 70 38 b7 eb 0b 32 31 37 69 38
       6.0887385e-07 5.7270372e-05 8.14446e-09 5.560293e-05
000030 83 d9 51 30 0b 83 c9 38 98 7c b3 34 ff 68 8e 38
       7.634286e-10 9.6088355e-05 3.3432002e-07 6.790645e-05
